point_transformer_full_model.pth (torch, 122323 bytes, 17 tensors)

weight f4 [64, 3]
0	0xbe84fae4	-0.25972664
1	0xbf061086	-0.5236896
2	0x3e80f7ea	0.25189143
3	0xbdb5d6e7	-0.0887888
4	0x3eed9ee2	0.4641028
5	0xbda370cf	-0.07980501
6	0x3ef16930	0.47150564
7	0xbf0dd920	-0.5540943
8	0x3f18bbd3	0.59661597
9	0x3ed0cd55	0.40781656
10	0xbdc93e3c	-0.098263234
11	0x3d700deb	0.058607023
12	0xbdc56c78	-0.096398294
13	0x3ec0c587	0.376507
14	0xbe8ca7b9	-0.27471712
15	0x3da70c01	0.081565864
16	0xbf061578	-0.5237651
17	0x3ee1598d	0.44013634
18	0xbeaa957e	-0.33317178
19	0xbea07b29	-0.31343964
20	0xbe506dc9	-0.2035438
21	0x3eeab757	0.45843002
22	0xbe255cef	-0.16148733
23	0x3f070cbf	0.52753824
24	0xbe590834	-0.21194535
25	0xbb36c95f	-0.0027891023
26	0x3f1cfdcb	0.6132476
27	0xbe2c1601	-0.16805269
28	0x3f09e817	0.53869766
29	0x3f005dd5	0.50143176
30	0xbe999206	-0.2999422
31	0xbec409e8	-0.38288808
32	0x3e28122e	0.16413185
33	0x3f09dfa3	0.5385687
34	0x3d89affc	0.067230195
35	0x3ebf2c37	0.3733842
36	0x3f01e3d0	0.5073824
37	0x3e223f36	0.15844426
38	0xbed5d30a	-0.41762573
39	0x3ea3ac33	0.31967315
40	0x3e698fbd	0.22808738
41	0x3d2be31e	0.041964643
42	0xbeb36bfb	-0.3504332
43	0x3dc0b2bd	0.094090916
44	0x3bfec157	0.0077745127
45	0xb55a9000	-8.1420876e-07
46	0x3e89f1a1	0.2694216
47	0xbee41bd4	-0.4455248
48	0xbea5545b	-0.3229092
49	0x3e162bf2	0.14665201
50	0x3e8eca99	0.27888945
51	0xbef27be0	-0.47360134
52	0x3f039453	0.513982
53	0x3dbcd657	0.092205696
54	0x3ef2825d	0.47365084
55	0xbe2bd5a4	-0.16780716
56	0xbec3abfa	-0.38217145
57	0xbe35a010	-0.1773684
58	0xbedd3372	-0.43203312
59	0xbc02d101	-0.007984401
60	0xbf0451b1	-0.5168715
61	0x3e8d8131	0.27637628
62	0x3e3f4c5c	0.18681473
63	0xbe487481	-0.19575693
64	0xbe3558e8	-0.17709696
65	0xbed3c575	-0.41361585
66	0x3e8e4553	0.27787265
67	0x3ef4d536	0.47818917
68	0xbee9c281	-0.45656207
69	0x3eb7f24a	0.3592704
70	0xbf06fcba	-0.5272938
71	0xbe8e65a7	-0.2781193
72	0xbef27d8f	-0.4736142
73	0xbea243af	-0.31692263
74	0xbe90aa55	-0.28254953
75	0x3e1e3324	0.15449196
76	0x3eb15c78	0.3464086
77	0x3ed0f178	0.40809226
78	0x3dd7d95b	0.10539504
79	0x3c2d9578	0.010594718
80	0xbed68a46	-0.4190237
81	0xbeaf3cf4	-0.3422619
82	0xbedbbeaf	-0.42918918
83	0x3eb9557e	0.36198038
84	0xbe52193a	-0.20517436
85	0x3e1c4dc0	0.15264034
86	0xbd4285e9	-0.047490988
87	0x3df3f34b	0.11911639
88	0xbe795f0a	-0.24352661
89	0x3ea09786	0.31365603
90	0x3ebaf39f	0.36513993
91	0xbee76cb4	-0.4520012
92	0xbe3ce6cd	-0.18447419
93	0xbf02d8da	-0.5111214
94	0x3f054310	0.52055454
95	0x3ee54a90	0.4478345
96	0xbeefaebd	-0.46813002
97	0xbe87a5ad	-0.26493588
98	0x3db6b815	0.089218296
99	0x3e32c01c	0.17456096
100	0xbed90c7c	-0.42392337
101	0x3f4f7929	0.8104425
102	0xbec04a05	-0.37556472
103	0xbe46c122	-0.19409612
104	0x3ec7d54e	0.39029926
105	0xbeaa873e	-0.33306307
106	0x3d76ede1	0.060285453
107	0xbeafe975	-0.343578
108	0x3ee7f52d	0.45304242
109	0xbeac77be	-0.33685106
110	0xbecc9355	-0.39956155
111	0x3e0bd379	0.13654889
112	0x3e32f848	0.17477524
113	0xbe62e153	-0.22156267
114	0xbdc001e7	-0.09375363
115	0x3eb0b31b	0.34511647
116	0xbe802d81	-0.25034717
117	0x3ec2ba2a	0.38032657
118	0xbe940918	-0.28913188
119	0x3e575f8b	0.2103254
120	0xbe8335e6	-0.2562706
121	0x3ee48822	0.4463511
122	0x3e654486	0.22389421
123	0x3f09df83	0.53856677
124	0x3d09b6d4	0.033621624
125	0xbec1807f	-0.37793347
126	0x3f188e08	0.5959172
127	0x3e0659e5	0.1312023
128	0x3d52c367	0.05145588
129	0x3e8cd7e7	0.2750847
130	0x3ed8b26e	0.4232363
131	0x3e408081	0.1879902
132	0xbeb1d671	-0.34733918
133	0xbec9b433	-0.39395294
134	0x3c945539	0.018107044
135	0xbe3c2d7e	-0.18376729
136	0x3e963955	0.29340616
137	0xbedc869d	-0.43071452
138	0xbf06ae96	-0.52610147
139	0x3ea57ab7	0.32320186
140	0xbe83d145	-0.25745597
141	0x3e331283	0.1748753
142	0x3e96d9d0	0.29463053
143	0xbf1ccc65	-0.6124938
144	0xbd93c654	-0.072155625
145	0xbe9f8fc4	-0.31164372
146	0xbee548cc	-0.44782102
147	0xbf0adc59	-0.54242474
148	0x3e559452	0.20857361
149	0x3ef83b1d	0.484826
150	0x3dd9b8c7	0.106309466
151	0x3f1352d7	0.5754828
152	0x3d8e5d3a	0.06951375
153	0x3ebcfa11	0.36909536
154	0xbea807e0	-0.32818508
155	0xbd6782e7	-0.056521323
156	0x3f0f0a84	0.5587542
157	0x3e9c2f09	0.30504635
158	0xbf0bd5ad	-0.5462292
159	0x3e5f4f1b	0.2180752
160	0xbeb60b1a	-0.35555345
161	0xbe648619	-0.22316779
162	0x3eb52654	0.35380805
163	0x3f03c770	0.5147619
164	0x3efc26bb	0.492483
165	0x3d04a145	0.03238036
166	0xbe34210d	-0.17590733
167	0xbe47645e	-0.19471881
168	0xb93fca08	-0.00018290442
169	0xbdbb201f	-0.09136986
170	0xbf105f27	-0.5639519
171	0x3dad9e32	0.08477439
172	0xbef114a6	-0.47086066
173	0xbd703144	-0.058640733
174	0xbeb15a0b	-0.3463901
175	0x3f000bf9	0.5001827
176	0xbd0599a9	-0.032617245
177	0x3ee49e7f	0.44652173
178	0x3e88e5b6	0.26737756
179	0x3ea943d1	0.33059552
180	0x3e89606d	0.2683138
181	0xbe429252	-0.1900113
182	0x3f11de98	0.56980276
183	0xbdbbcb8d	-0.091696836
184	0x3ee06586	0.43827456
185	0xbd6f21d4	-0.05838187
186	0xbecef57d	-0.40421668
187	0xbea45cad	-0.32101956
188	0x3eb8e30a	0.36110717
189	0x3f083121	0.53199965
190	0x3ed0c0c1	0.4077206
191	0xbe298bb8	-0.16557205

bias f4 [64]
0	0x3d886eab	0.06661733
1	0xbea0adde	-0.3138265
2	0xbeb9adcf	-0.36265418
3	0x3e8561d6	0.26051205
4	0x3f1c4024	0.6103537
5	0xbe926060	-0.28589153
6	0xbe675bd1	-0.22593619
7	0x3ea3470b	0.3189014
8	0x3ef4815a	0.47754937
9	0xbee5b8a0	-0.4486742
10	0xbee949d2	-0.45564133
11	0x3ec1ab54	0.37826025
12	0x3f04ae90	0.5182886
13	0x3ef786c5	0.48345008
14	0x3eea3dcc	0.45750272
15	0xbeaa4589	-0.33256176
16	0x3f165e52	0.5873767
17	0x3ed3adb7	0.4134347
18	0xbe483424	-0.1955114
19	0xbefc2847	-0.4924948
20	0x3db29e86	0.08721642
21	0x3ce92be5	0.028463313
22	0xbece029a	-0.4023636
23	0x3e6da01b	0.23205607
24	0xbea76d51	-0.3270059
25	0xbec28974	-0.37995493
26	0xbc7dac78	-0.015483014
27	0x3e62bb15	0.22141679
28	0xbf106287	-0.5640034
29	0x3ec912a1	0.39272025
30	0xbe9c79ec	-0.3056177
31	0xbf0a9e35	-0.54147655
32	0xbf0ff7db	-0.5623757
33	0xbed36872	-0.41290623
34	0x3e720203	0.2363358
35	0xbe5f5272	-0.21808794
36	0x3ec8e180	0.39234543
37	0x3dd68dc7	0.10476261
38	0x3ec31867	0.38104555
39	0xbe3f8162	-0.187017
40	0x3e5c27dd	0.21499582
41	0xbe72d43a	-0.2371377
42	0x3e6be0c5	0.23034962
43	0x3ca24f32	0.019813154
44	0x3e67ae20	0.22625017
45	0x3e88b3d0	0.26699686
46	0xbe90cfbe	-0.28283495
47	0xbe1789f6	-0.14798722
48	0xbf0de114	-0.55421567
49	0x3dcf3c6b	0.10118946
50	0xbdfc9abb	-0.123342
51	0xbeb48b6d	-0.35262623
52	0x3ebc212a	0.36744052
53	0x3dfde262	0.12396695
54	0xbe0cbbfc	-0.13743585
55	0x3e5fb941	0.21848013
56	0x3eb8c231	0.36085656
57	0x3f09f989	0.53896385
58	0x3d75402d	0.059875656
59	0xbe448f33	-0.19195251
60	0x3e640537	0.22267614
61	0x3e162520	0.146626
62	0xbeb401dc	-0.3515767
63	0xbefec9b5	-0.49763265

weight f4 [64, 4]
0	0x3eeb230d	0.4592518
1	0x3ea80a6c	0.3282045
2	0xbef1383a	-0.4711321
3	0xbea76f30	-0.32702017
4	0x3ebbd9f9	0.36689737
5	0xbee661f4	-0.44996607
6	0xbe14e676	-0.14541039
7	0x3e0e9995	0.13925774
8	0xbdfbe5e8	-0.122997105
9	0xbdd3165b	-0.10306998
10	0xbb282986	-0.0025659516
11	0xbe248075	-0.16064627
12	0x3e954295	0.2915236
13	0xbcedd24b	-0.02903094
14	0x3d5278e4	0.05138482
15	0x3eedfa8a	0.4648021
16	0x3e2719fc	0.16318506
17	0xbe0d053a	-0.13771525
18	0x3eb2a37a	0.34890348
19	0x3edacb6c	0.42733324
20	0xbe7c431f	-0.2463498
21	0xbed92f1b	-0.4241875
22	0xbee81678	-0.45329642
23	0xbeae7171	-0.34070924
24	0xbebbcc19	-0.36679152
25	0x3b6430f8	0.0034819227
26	0xbd6ab9d2	-0.05730612
27	0x3e63a706	0.22231683
28	0x3ece75a4	0.40324128
29	0x3c33bd6a	0.010970453
30	0xbecfe148	-0.40601563
31	0xbec4e215	-0.38453737
32	0xbecd327f	-0.40077588
33	0x3ebbf650	0.3671136
34	0xbde274a7	-0.11057406
35	0xbda2c8fe	-0.079484925
36	0xbe3f6f83	-0.18694882
37	0x3e3ee92a	0.18643633
38	0xbe364c26	-0.17802486
39	0xbd87f795	-0.066390194
40	0x3eca2743	0.3948308
41	0x3ee26e55	0.44224802
42	0x3e83835f	0.25686166
43	0xbec2ea50	-0.3806939
44	0xbea37df4	-0.31932032
45	0xbd0eafeb	-0.034835737
46	0x3eb6c54f	0.3569741
47	0xbde7ffae	-0.11328064
48	0xbecab846	-0.39593714
49	0xbee3fd3a	-0.44529134
50	0x3e4fe08a	0.20300499
51	0x3ed50126	0.4160244
52	0xbe994fdf	-0.2994375
53	0xbef64888	-0.48102212
54	0x3e0412a8	0.12897742
55	0x3cba3736	0.022731405
56	0xbed7ecfa	-0.42172986
57	0xbe622085	-0.22082718
58	0x3e92bef1	0.28661302
59	0xbeb60302	-0.3554917
60	0x3e59d2e9	0.21271862
61	0x3e8fab09	0.28060177
62	0xbe8dbadf	-0.27681634
63	0xbd4e518b	-0.050370734
64	0xbe9c2485	-0.30496612
65	0x3ed649ed	0.41853276
66	0x3e290bea	0.16508451
67	0x3e18b8e8	0.14914286
68	0x3f101c5f	0.5629329
69	0x3e347768	0.17623675
70	0xbe89ddd1	-0.26927045
71	0x3ebd1c63	0.3693572
72	0x3c913fde	0.01773065
73	0xbeb4a584	-0.35282528
74	0x3cf0b55d	0.029383356
75	0xbec746f0	-0.3892131
76	0xbecc6137	-0.3991792
77	0x3ec6a04b	0.3879417
78	0x3e573395	0.2101577
79	0xbeba60e1	-0.36402038
80	0xbee3adbf	-0.44468495
81	0xbdf67680	-0.12034321
82	0xbec7f02a	-0.39050418
83	0xbec2e9b6	-0.38068932
84	0xbef91655	-0.4864985
85	0xbd9bfb17	-0.07616251
86	0xbead399e	-0.3383302
87	0xbde653e9	-0.11246473
88	0x3e9d4ed1	0.30724195
89	0x3eeebb69	0.46627358
90	0xbdf71a92	-0.12065615
91	0xbee987ba	-0.45611364
92	0xbf04ca2d	-0.51870996
93	0x3db0b3df	0.08628058
94	0xbe7d204b	-0.2471935
95	0x3d77b0fa	0.060471512
96	0x3eef714b	0.46766123
97	0xbccb295c	-0.024799995
98	0xbd954df1	-0.07290257
99	0xbe13763c	-0.14400572
100	0xbe730adf	-0.23734616
101	0xbe35273a	-0.17690745
102	0xbf04ff14	-0.5195172
103	0x3ea523c8	0.3225386
104	0xbec984f1	-0.3935924
105	0xbed130d3	-0.40857562
106	0x3eaa0513	0.33206996
107	0x3ea0c99a	0.3140381
108	0xbd910142	-0.07080318
109	0x3d8b4068	0.06799394
110	0x3e7e6d04	0.24846274
111	0xbc38a1e2	-0.011269065
112	0xbc2eb687	-0.010663635
113	0x3f04dcaa	0.51899207
114	0x3f145038	0.57934904
115	0x3ed85d88	0.4225886
116	0xbed4fa36	-0.41597146
117	0xbef79d77	-0.48362324
118	0xbc86c490	-0.01645115
119	0x3df41587	0.119181685
120	0xbdd68266	-0.1047409
121	0x3ea08760	0.31353283
122	0x3e2540aa	0.16137949
123	0x3a069d9c	0.000513518
124	0xbe13661a	-0.14394417
125	0xbea763bd	-0.32693282
126	0x3e993294	0.299214
127	0x3ea93769	0.33050087
128	0xbdaf792a	-0.08568032
129	0x3ecfa681	0.4055672
130	0x3c75fae4	0.01501343
131	0x3e80c113	0.25147304
132	0x3e82ea44	0.25569355
133	0xbed1dddb	-0.40989575
134	0xbd427f00	-0.047484398
135	0xbc1be207	-0.009514338
136	0x3ef37e95	0.47557512
137	0xbeddffee	-0.4335932
138	0x3d213a88	0.03936246
139	0x3e137ad6	0.14402327
140	0xbee306ad	-0.4434103
141	0xbeec70a9	-0.46179703
142	0x3d16cdd0	0.03681737
143	0xbed4a862	-0.41534716
144	0xbe52d607	-0.20589457
145	0xbe82bcc2	-0.25534636
146	0x3e5f7872	0.2182329
147	0x3e694e7d	0.22783847
148	0x3bc3783f	0.005965262
149	0x3eac2096	0.3361861
150	0xbec80d45	-0.39072624
151	0xbee00bf2	-0.43759114
152	0xbdffe7b5	-0.124953665
153	0x3ec1c525	0.37845722
154	0x3ecfc5d2	0.40580612
155	0xbe60d777	-0.21957193
156	0x3da91a4f	0.08256971
157	0x3de30c54	0.11086336
158	0x3e8e0056	0.2773463
159	0xbe9b2b71	-0.3030658
160	0x3e19f209	0.15033735
161	0x3ee1c425	0.4409496
162	0x3e32d952	0.17465714
163	0xbe8f6b5a	-0.2801159
164	0x3ef074e9	0.46964195
165	0x3e676935	0.22598727
166	0xbe84a74c	-0.25908887
167	0x3e83e870	0.25763273
168	0x3d76ca6a	0.06025163
169	0x3f129808	0.5726323
170	0xbdca47f7	-0.098770075
171	0xbdf34486	-0.11878304
172	0x3e94bc4e	0.29049915
173	0x3e64db6d	0.2234933
174	0x3f09baa3	0.5380041
175	0x3e8b0776	0.2715413
176	0x3edc65d2	0.43046433
177	0xbd9e8c12	-0.0774156
178	0xbec30f42	-0.38097578
179	0x3e9b3fe3	0.3032218
180	0x3e675e9b	0.22594683
181	0x3ec426fd	0.38310996
182	0x3e141623	0.1446157
183	0xbdca9061	-0.09890819
184	0x3d90c136	0.07068102
185	0xbe5a9b20	-0.21348238
186	0x3e9c91e3	0.30580053
187	0xbebc7599	-0.3680847
188	0xbc9b18f2	-0.018932793
189	0x3ecc3025	0.3988048
190	0x3d934fdd	0.07192967
191	0x3e35c6de	0.17751643
192	0x3e335425	0.17512567
193	0xbdc03b64	-0.09386328
194	0x3ed18c18	0.40927196
195	0x3ebfe1b9	0.374769
196	0x3eb3fa44	0.35151875
197	0x3edfc35d	0.43703738
198	0x3dc1c1b1	0.09460772
199	0x3efdbfb9	0.49560335
200	0x3ee9fcec	0.45700777
201	0xbde74530	-0.11292493
202	0xbe555a04	-0.2083512
203	0x3edfc298	0.4370315
204	0xbd204089	-0.039124046
205	0xbe2af1ea	-0.16693845
206	0xbef42090	-0.47681093
207	0x3eef1e39	0.46702746
208	0xbd971772	-0.07377519
209	0x3eef7e58	0.4677608
210	0xbeb69db1	-0.35667184
211	0x3ed4b3d0	0.41543436
212	0xbed9afcb	-0.42516932
213	0x3eabd8df	0.33563897
214	0x3d42a849	0.04752377
215	0x3f10fb0b	0.5663306
216	0xbe8ef803	-0.27923593
217	0xbf045ddf	-0.51705736
218	0x3cbf8012	0.023376498
219	0x3ebc1774	0.36736643
220	0xbe1385c0	-0.1440649
221	0xbe853dfa	-0.26023847
222	0xbecd8c24	-0.4014598
223	0x3d10b9cc	0.03533344
224	0x3e784adf	0.24247311
225	0xbc68b434	-0.01420312
226	0xbebeb3db	-0.37246594
227	0xbd73a0dc	-0.05947958
228	0x3eab056f	0.33402583
229	0x3de9865c	0.1140258
230	0xbeb565b6	-0.35429162
231	0x3e0f07db	0.1396784
232	0x3e8bafdc	0.27282608
233	0xbeb3792a	-0.35053378
234	0xbe4ba51c	-0.19887203
235	0xbecec0b1	-0.40381387
236	0x3ef7462d	0.48295727
237	0xbdb23528	-0.08701545
238	0xbe548746	-0.20754728
239	0x3ec32a2f	0.3811812
240	0x3cda35e8	0.026637033
241	0xbe6ab776	-0.22921547
242	0xbf1e0d6c	-0.6173923
243	0xbeec5abc	-0.46162975
244	0xbe19e16f	-0.15027402
245	0x3e808390	0.25100374
246	0xbc33c5be	-0.010972438
247	0x3eb1ae46	0.34703273
248	0xbf0d2b6c	-0.5514438
249	0xbd9a72b3	-0.075414084
250	0x3cbc8920	0.023014605
251	0xbeae79e1	-0.3407736
252	0xbccfd967	-0.02537222
253	0x3ec259c9	0.37959126
254	0x3e2d9428	0.16951048
255	0x3f0b4b6b	0.54411954

weight f4 [64, 4]
0	0xbe5d75fe	-0.21627042
1	0xbdb2318c	-0.087008566
2	0x3ee17d96	0.44041127
3	0xbda393fd	-0.07987211
4	0xbee0413f	-0.4379978
5	0x3e467055	0.19378789
6	0xbf00d4c2	-0.5032464
7	0x3ebfc9ae	0.37458557
8	0x3e2fd7bc	0.1717214
9	0x3d97db2e	0.07414852
10	0xbde30b6e	-0.110861644
11	0xbe4d39b2	-0.2004154
12	0xbe628f1c	-0.22124904
13	0xbe145a10	-0.14487481
14	0xbe6ec1d4	-0.23316127
15	0xbdbf34fe	-0.09336279
16	0xbea83c67	-0.32858583
17	0x3e66e0ab	0.22546642
18	0xbe86a2a8	-0.26295972
19	0x3e8cf63e	0.27531618
20	0x3ea493db	0.32144055
21	0x3d8c7a72	0.06859292
22	0x3e101842	0.14071754
23	0x3e7fb403	0.24971013
24	0xbe641e18	-0.22277105
25	0x3ed0c573	0.40775642
26	0x3e50aeb7	0.20379148
27	0xbc7d6620	-0.015466243
28	0x3e8d8b26	0.27645224
29	0xbdc7154c	-0.09720859
30	0xbcbea5c8	-0.02327241
31	0xbc501353	-0.01269992
32	0xbce52c17	-0.027975125
33	0x3ef0b31d	0.47011653
34	0x3ecaa9ed	0.39582768
35	0xbed390ac	-0.41321313
36	0x3e74a3bb	0.23890583
37	0xbec0d4d4	-0.37662375
38	0xbe3f4b3b	-0.18681042
39	0x3ea1a0e0	0.3156805
40	0xbe678eb6	-0.22613034
41	0x3db84efb	0.08999439
42	0x3daadf0b	0.08343323
43	0x3ed381c9	0.41309956
44	0xbe6eed0d	-0.23332615
45	0x3ec9d27f	0.39418408
46	0x3e60d833	0.21957473
47	0x3ec53203	0.38514718
48	0xbdb7255f	-0.08942675
49	0xbea3f05e	-0.32019323
50	0x3e29a0d4	0.16565257
51	0xbe85454e	-0.26029438
52	0xbdd5b210	-0.10434353
53	0x3e0082b2	0.12549856
54	0xbdcda460	-0.10041118
55	0x3ea9e74c	0.33184278
56	0x3e67b200	0.22626495
57	0xbdd9787d	-0.106186844
58	0xbf1ba3ce	-0.6079682
59	0xbdc4d618	-0.09611148
60	0xbeb13ded	-0.34617558
61	0xbebef304	-0.3729478
62	0x3e2ccaae	0.16874191
63	0xbddbab32	-0.10726012
64	0x3e2442b1	0.16041066
65	0x3de02823	0.109451555
66	0x3d993767	0.0748127
67	0x3ecd1d8f	0.40061614
68	0x3eb479b9	0.35249117
69	0xbe5757f7	-0.2102965
70	0xbe86a3e2	-0.26296908
71	0x3ec1e45e	0.37869543
72	0xbed8f2dd	-0.4237279
73	0x3cb734a5	0.02236397
74	0x3ee9094f	0.45514914
75	0x3eea480f	0.457581
76	0x3c9e0e70	0.019293994
77	0x3d35cc13	0.044384073
78	0x3e561ec0	0.20910168
79	0x3edaafd6	0.42712277
80	0xbe6e654f	-0.23280834
81	0x3e5bc8cd	0.21463318
82	0x3da0bd5f	0.0784862
83	0xbf00232a	-0.50053656
84	0x3e8dceb7	0.27696773
85	0x3d6d7b45	0.057978887
86	0xbef90274	-0.48634684
87	0xbdb4db44	-0.08830884
88	0xbe97e882	-0.29669577
89	0x3e81fe1a	0.25389177
90	0xbf066f32	-0.5251342
91	0xbde6a9ac	-0.11262831
92	0x3e448020	0.19189501
93	0x3e6e63aa	0.23280206
94	0xbf142cca	-0.5788084
95	0xbedc8519	-0.43070295
96	0xbea51615	-0.3224341
97	0x3e4a042e	0.19728157
98	0xbe826e43	-0.25474748
99	0x3cb87e34	0.022521116
100	0xbec9a748	-0.39385438
101	0x3ecb1005	0.3966066
102	0xbefbd1c3	-0.49183473
103	0xbe9451ff	-0.28968808
104	0x3e9f3cd2	0.3110109
105	0xbf0b54bd	-0.54426175
106	0x3b010b04	0.0019690404
107	0x3e92e6bf	0.2869167
108	0xbd8c0395	-0.06836621
109	0xbe40465e	-0.18776843
110	0xbdb32498	-0.08747214
111	0xbed55714	-0.41667998
112	0xbe84fa13	-0.2597204
113	0xbe247b25	-0.16062601
114	0xbe36f567	-0.17867051
115	0x3f244d40	0.64180374
116	0x3e956134	0.29175723
117	0x3eb19359	0.3468273
118	0xbf24700e	-0.6423348
119	0x3df02d10	0.11727345
120	0xbeaa2f06	-0.33239
121	0x3e85829a	0.26076204
122	0xbecec4e5	-0.40384594
123	0x3e03b1ec	0.1286084
124	0x3e5f45f9	0.21804036
125	0x3e025ae0	0.12729979
126	0x3edc1e96	0.42992085
127	0xbd4c7a10	-0.049921095
128	0x3efe30d6	0.49646634
129	0x3ed58be4	0.4170829
130	0x3f1491db	0.5803506
131	0x3f147e05	0.5800479
132	0xbc11e93f	-0.008905708
133	0x3e749162	0.23883584
134	0x3eaec1af	0.34132144
135	0x3e875d44	0.26438344
136	0xbe9c3cd0	-0.30515146
137	0xbe8f4477	-0.27981922
138	0xbe0032c0	-0.1251936
139	0x3ddc77e3	0.10765054
140	0xbe85e6f3	-0.26152763
141	0xbdf308b7	-0.118668966
142	0xbbc0a7aa	-0.005879362
143	0x3e99f227	0.3006756
144	0x3eea65af	0.45780703
145	0x3ea4ac25	0.32162586
146	0x3ee0b2c7	0.43886396
147	0xbee6422b	-0.44972357
148	0xbe991730	-0.29900503
149	0x3ed8ec97	0.42368004
150	0xbe5d332e	-0.21601555
151	0xbe4c8eb5	-0.19976313
152	0xbe511ada	-0.204204
153	0x3e980dda	0.29698068
154	0x3dd8df44	0.105894595
155	0xbe95c84a	-0.2925437
156	0x3e8ce910	0.27521563
157	0x3e1a3d59	0.15062465
158	0x3ee82cd1	0.45346692
159	0xbb9780d8	-0.0046235137
160	0xbed0eb5e	-0.4080457
161	0xbed6c9ac	-0.41950738
162	0x3efee62e	0.49784988
163	0x3e9f7ac4	0.3114835
164	0x3ed73a90	0.42036867
165	0x3e8e4178	0.27784324
166	0xbdfea3ce	-0.12433587
167	0x3e49c78f	0.19705032
168	0x3e24ac51	0.16081358
169	0xbdbb9b46	-0.091604754
170	0x3d378db1	0.04481286
171	0xbdb21221	-0.08694864
172	0x3e34de5f	0.17662953
173	0x3e1950c2	0.14972213
174	0x3d1d73ef	0.03844064
175	0xbe5235e2	-0.20528367
176	0x3e85fcb1	0.2616935
177	0xbecd07e8	-0.40045094
178	0xbcf6b56c	-0.030115806
179	0xbe893453	-0.26797733
180	0x3ba7589b	0.005106998
181	0x3e25e777	0.16201578
182	0xbdb62ad4	-0.088948876
183	0x3e986876	0.29767197
184	0x3f01184c	0.504277
185	0x3d96868b	0.07349881
186	0x3e9ffc45	0.31247154
187	0xbe2aa276	-0.16663536
188	0xbdead776	-0.11466877
189	0x3ee36904	0.44416058
190	0xbc622b29	-0.0138042355
191	0x3ef7ec70	0.48422575
192	0xbe8b1c3c	-0.2716998
193	0x3eee748d	0.46573296
194	0x3e997020	0.29968357
195	0xbec7f637	-0.39055035
196	0x3e00f5c8	0.12593758
197	0x3e85c3a5	0.26125827
198	0xbee1066d	-0.43950215
199	0x3e4e26d0	0.20131993
200	0xbef5a462	-0.47976977
201	0x3d1f09ab	0.03882758
202	0x3e9b230b	0.30300173
203	0xbeffd2c4	-0.4996549
204	0xbe15a03e	-0.14611909
205	0x3ea1e066	0.31616515
206	0xbef4b7cf	-0.47796485
207	0x3efa53f0	0.48892164
208	0x3e207a75	0.15671714
209	0xbea2c45b	-0.31790432
210	0xbd865462	-0.065590635
211	0x3e56080a	0.20901504
212	0xbec0e71f	-0.3767633
213	0xbe7fd68c	-0.24984187
214	0xbe697380	-0.22797966
215	0xbe754f52	-0.2395604
216	0x3edca8fe	0.4309768
217	0xbf0ab40b	-0.54180974
218	0xbe2b7f5d	-0.16747804
219	0x3ecaa991	0.39582494
220	0x3ea3e2c4	0.32008946
221	0x3e0b1076	0.13580498
222	0xbd9545fe	-0.072887406
223	0x3d3fbb1d	0.046809305
224	0xbefcb067	-0.49353334
225	0x3e931034	0.287233
226	0x3e54667d	0.20742221
227	0xbe44cbf6	-0.1921843
228	0x39bf328e	0.00036468025
229	0xbe657e4d	-0.22411461
230	0x3eedfb01	0.46480563
231	0x3e4d6205	0.20056923
232	0x3dc43454	0.09580293
233	0x3c8ac77b	0.016940823
234	0xbd428605	-0.047491092
235	0xbeed3486	-0.46329135
236	0xbd4c33da	-0.049854137
237	0x3d15682f	0.03647631
238	0xbe96f992	-0.29487282
239	0xbc586102	-0.013206722
240	0xbec5162d	-0.3849348
241	0x3f24ec11	0.6442271
242	0x3ef5943f	0.47964665
243	0x3f2aaf03	0.66673297
244	0x3ecc8b9e	0.3995027
245	0x3e826bff	0.2547302
246	0xbf00c3c8	-0.5029874
247	0xbeef280c	-0.4671024
248	0x3ecc120c	0.3985752
249	0x3bc4f5a9	0.0060107303
250	0x3eab66fb	0.33477005
251	0xbd9cd961	-0.07658649
252	0xbea2edaf	-0.31821963
253	0x3ef532dd	0.47890368
254	0x3e380bb2	0.17973211
255	0x3adc2c6e	0.0016797909

weight f4 [64, 4]
0	0x3db63c6f	0.088982455
1	0xbed844de	-0.42240041
2	0x3e6ad7c6	0.22933874
3	0x3e8af9e7	0.27143785
4	0x3cc1b715	0.02364687
5	0xbdf60a74	-0.120137125
6	0xbec980ea	-0.39356166
7	0x3ebccffc	0.3687743
8	0xbea889fd	-0.32917777
9	0x3e071991	0.13193347
10	0x3ed7ed51	0.42173246
11	0xbe624bac	-0.22099179
12	0xbeb23d11	-0.34812215
13	0x3e86c64a	0.26323158
14	0x3ec20134	0.37891543
15	0x3dc2130f	0.094762914
16	0x3ed3e736	0.41387337
17	0xbe6c19d3	-0.23056726
18	0x3e1839e8	0.1486584
19	0xbe975489	-0.29556683
20	0x3e01cdce	0.12676165
21	0x3c78c06e	0.015182598
22	0x3e9e40d8	0.30908847
23	0x3e213688	0.15743458
24	0xbeaf746c	-0.3426851
25	0xbea5e31d	-0.32399836
26	0xbdcf82fc	-0.10132405
27	0xbe097aff	-0.13425826
28	0xbd9e27ce	-0.07722436
29	0xbde040b1	-0.10949839
30	0xbc1d9e41	-0.00962025
31	0x3e154b90	0.14579606
32	0x3dfabd47	0.12243133
33	0xbe38158c	-0.1797697
34	0x3e88bac4	0.2670499
35	0xbec3a66d	-0.3821291
36	0xbef473c6	-0.47744578
37	0xbeaac515	-0.33353487
38	0x3e5918f5	0.21200927
39	0x3e8a38bf	0.2699642
40	0xbd834a09	-0.064106055
41	0xbece0aa3	-0.4024249
42	0xbeb94659	-0.36186484
43	0xbd4e0314	-0.050295904
44	0xbe2caed2	-0.16863564
45	0xbdbfb6a2	-0.09361006
46	0xbec2f04d	-0.3807396
47	0x3e28d501	0.16487505
48	0xbed4e442	-0.41580397
49	0xbe74d22d	-0.239083
50	0xbf000e9a	-0.5002228
51	0x3eda5c9d	0.42648783
52	0xbebf7fc5	-0.37402168
53	0xbe66b27b	-0.22529022
54	0x3d965d66	0.07342033
55	0x3e3e8b15	0.18607743
56	0x3edef32c	0.435449
57	0xbeab98ce	-0.33515018
58	0x3c089131	0.008335398
59	0x3d2d3d66	0.042294882
60	0xbef13ffc	-0.4711913
61	0x3e514cb4	0.20439416
62	0x3d86c10f	0.06579792
63	0xbd3df01e	-0.04637157
64	0xbdae19fb	-0.08501049
65	0xbeac06be	-0.33598894
66	0x3e497e8d	0.19677182
67	0xbea8473e	-0.32866853
68	0xbe964b81	-0.2935448
69	0x3e2560b9	0.16150178
70	0xbdba8a4b	-0.091084085
71	0x3e637fa3	0.22216658
72	0x3e9edfcb	0.31030115
73	0x3eb5157c	0.35367954
74	0x3ecbecfa	0.39829236
75	0xbe53f9e5	-0.20700796
76	0xbba0a292	-0.0049021924
77	0x3e965c9b	0.29367527
78	0x3efb2fb1	0.49059823
79	0xbe7a4bb6	-0.24442944
80	0xbecb73d8	-0.3973682
81	0xbe10cde6	-0.14141044
82	0x3e34056c	0.17580193
83	0x3d7b9873	0.061424684
84	0xbcb1c61f	-0.021700917
85	0xbeff5e96	-0.4987685
86	0x3e44de89	0.19225515
87	0x3e865918	0.26239848
88	0x3c98885a	0.018619705
89	0xbecf79b8	-0.40522552
90	0xbee03591	-0.43790868
91	0xbe87000e	-0.2636723
92	0xbe1e0850	-0.15432858
93	0x3e497132	0.19672087
94	0xbd5bcdbc	-0.053663
95	0x3ed2a386	0.41140383
96	0x3d7a6d33	0.061139297
97	0x3d7a00b8	0.06103584
98	0xbd1911fd	-0.03737067
99	0xbeb91600	-0.36149597
100	0x3e2c9602	0.16854098
101	0xbeb9cd01	-0.36289218
102	0x3dbb5b11	0.09148229
103	0xbe3da4b8	-0.18519866
104	0x3deb9e9f	0.11504864
105	0xbe205dc3	-0.15660767
106	0x3ee09db5	0.4387032
107	0x3ed2ad10	0.4114766
108	0xbeb3c11c	-0.35108268
109	0x3e920f21	0.28527167
110	0x3ed13b7a	0.4086569
111	0x3e47182c	0.19442815
112	0x3ed73549	0.4203284
113	0x3e9d7eba	0.30760747
114	0xbe9d8be2	-0.30770785
115	0x3d8e7811	0.069564946
116	0xbee5171f	-0.44744202
117	0xbebbd56c	-0.36686265
118	0xb9b24a79	-0.00034006292
119	0x3e961e26	0.29319876
120	0xbe649283	-0.22321515
121	0xbef1e8c7	-0.47247908
122	0x3e64d992	0.22348621
123	0xbe7ea9e1	-0.24869491
124	0xbe923673	-0.28557166
125	0x3eb59d0c	0.3547138
126	0xbe5f114f	-0.21783946
127	0xbce5b3b1	-0.028039785
128	0x3eb6498b	0.35602984
129	0xbe9bc549	-0.30423954
130	0x3e4343a3	0.1906877
131	0x3e9c8779	0.30572107
132	0x3da7f6e6	0.08201389
133	0x3e017b74	0.1264475
134	0x3efad727	0.48992273
135	0xbe476550	-0.19472241
136	0xbe45ba9e	-0.1930947
137	0x3efa2116	0.48853368
138	0xbec68856	-0.3877589
139	0x3e438ed1	0.19097449
140	0xbe003cfa	-0.1252326
141	0xbe8691b2	-0.26283032
142	0x3d713c13	0.058895182
143	0x3e9d7490	0.30752993
144	0xbc128166	-0.008941984
145	0xbdcc6b97	-0.09981459
146	0xbe9b9b40	-0.30391884
147	0x3ed2b021	0.4115
148	0x3e25df4f	0.16198467
149	0x3e261ba8	0.16221488
150	0x3e79feca	0.244136
151	0x3e407e4d	0.1879818
152	0xbe9c111f	-0.30481812
153	0xbea0e660	-0.31425762
154	0xbe22136f	-0.15827726
155	0xbc30be3c	-0.010787543
156	0xbdc6d9cc	-0.0970951
157	0xbef8484e	-0.48492664
158	0x3e2e7757	0.17037712
159	0xbea2deeb	-0.31810698
160	0xbe0833df	-0.13301037
161	0xbeed3384	-0.46328366
162	0xbee7946f	-0.45230433
163	0x3ee693bd	0.4503459
164	0xbeea65b0	-0.45780706
165	0xbe521c0a	-0.20518509
166	0x3ec3d536	0.38248605
167	0x3e2ca61b	0.16860239
168	0x3ecd8836	0.40142983
169	0xbd6f4793	-0.058417868
170	0xbeefc29f	-0.46828172
171	0x3ec813fc	0.39077747
172	0xbcd3546c	-0.025797091
173	0xbe90ee58	-0.28306842
174	0x3ea56e63	0.3231078
175	0xbda46d09	-0.08028609
176	0xbe82d9cb	-0.25556788
177	0xbef3ff52	-0.4765573
178	0x3e14159d	0.1446137
179	0x3e268ebb	0.16265385
180	0xbec2a46b	-0.38016066
181	0x3ebbb4b4	0.36661303
182	0xbc398817	-0.01132395
183	0x3ec1569a	0.37761384
184	0xbe1693c5	-0.14704807
185	0xbeaa06bb	-0.3320826
186	0x3ea12347	0.31472227
187	0x3e1bce6a	0.1521546
188	0x3ea3dc35	0.32003942
189	0xbec3adc4	-0.3821851
190	0xbec28638	-0.37993026
191	0xbe9fd86a	-0.31219798
192	0xbe24bd1d	-0.16087766
193	0x3ba9826b	0.0051730177
194	0xbe72756d	-0.23677607
195	0xbef52e7b	-0.47887024
196	0xbd8fab3c	-0.07015082
197	0x3e807357	0.25087997
198	0x3ed8231d	0.4221429
199	0x3ea1bb63	0.31588277
200	0xbeda38e3	-0.42621526
201	0xbe810dd1	-0.25205854
202	0x3efae22a	0.49000674
203	0x3ef67018	0.48132396
204	0xbcd6c78b	-0.026218196
205	0x3ec1e2e3	0.37868413
206	0xbe783667	-0.24239503
207	0xbc8d3510	-0.017237216
208	0x3e6c34dd	0.2306704
209	0xbef6e17d	-0.4821891
210	0x3e97bf65	0.2963821
211	0xbdbbb4c4	-0.09165338
212	0x3e8e897a	0.2783926
213	0xbe3fdc23	-0.18736319
214	0x3eaebc5c	0.34128082
215	0xbe75972a	-0.23983446
216	0xbd10f592	-0.035390444
217	0xbd821e25	-0.06353406
218	0x3ecb3748	0.39690614
219	0x3e820cad	0.25400296
220	0xbeac91ac	-0.3370489
221	0xbecf3e82	-0.40477377
222	0xbdaa5da2	-0.0831864
223	0x3e800ffc	0.25012195
224	0xbef62db4	-0.48081744
225	0x3df82bac	0.12117705
226	0xbd98d527	-0.074625306
227	0xbef135a2	-0.4711123
228	0x3d9a27ba	0.075271085
229	0xbd07fe1d	-0.033201326
230	0xbe90e995	-0.2830321
231	0x3e5cc101	0.21558
232	0x3e612de6	0.21990165
233	0xbee19761	-0.44060805
234	0xbdda448d	-0.10657606
235	0xbefe52ab	-0.49672446
236	0xbe5595f0	-0.20857978
237	0xbed31a7d	-0.41231146
238	0xbd032386	-0.0320163
239	0x3e02dff7	0.12780748
240	0xbd1d4f12	-0.038405485
241	0x3eb34eec	0.3502115
242	0xbe6cf26a	-0.23139349
243	0xbefd3388	-0.49453378
244	0xbea3e4eb	-0.32010588
245	0xbecf4838	-0.40484786
246	0x3ea2f999	0.31831053
247	0x3ed6621b	0.41871724
248	0xbd7202e7	-0.0590848
249	0x3e6aac50	0.22917295
250	0xbde06e9d	-0.10958598
251	0x3e188ef1	0.14898278
252	0x3de1a581	0.110178955
253	0xbe4b419f	-0.19849251
254	0x3c2cf129	0.010555544
255	0xbd8702cc	-0.0659233

weight f4 [64, 3]
0	0xbe59914a	-0.2124683
1	0x3de6ba7a	0.11266036
2	0x3e8ae0e5	0.27124706
3	0xbe012b77	-0.12614237
4	0xbd27f80a	-0.041008033
5	0xbddf727c	-0.10910508
6	0xbddf51ff	-0.109043114
7	0xbe4c4f85	-0.1995221
8	0xbe53ec80	-0.20695686
9	0x3ddac0a9	0.10681278
10	0x3eb53ea7	0.35399362
11	0x3ed8cad7	0.42342255
12	0xbe923a7b	-0.28560242
13	0x3e3085ef	0.17238592
14	0x3ee8178d	0.45330468
15	0xbea32e18	-0.31871104
16	0x3eca7471	0.39541963
17	0xbe9a4b9d	-0.30135813
18	0xbea7422f	-0.32667682
19	0x3de904ac	0.11377844
20	0x3ee269bf	0.44221303
21	0x3eea69b2	0.45783764
22	0xbf10a8cf	-0.5650758
23	0x3e6d5e83	0.23180585
24	0xbdecc43b	-0.115608655
25	0xbebeb33f	-0.3724613
26	0xbeb87c09	-0.3603213
27	0x3e7d7dc2	0.24755004
28	0x3dcdff8e	0.10058509
29	0xbecca018	-0.39965892
30	0xbe59c60a	-0.21266952
31	0xbe61fee2	-0.22069886
32	0x3ec269d2	0.3797136
33	0xbe69fdab	-0.22850673
34	0x3ecb1893	0.39667186
35	0xbe1acb88	-0.15116704
36	0x3f11d973	0.56972426
37	0x3e10cb7e	0.14140126
38	0x3ee5d918	0.44892192
39	0x3eca450b	0.395058
40	0xbe070a54	-0.13187534
41	0x3bef9d38	0.007312443
42	0x3ef4e331	0.47829583
43	0xbde2bf29	-0.11071617
44	0xbeba2b1a	-0.3636101
45	0xbe588c6d	-0.21147318
46	0xbe081085	-0.13287552
47	0xbd476dff	-0.048688885
48	0x3eca4aa5	0.39510074
49	0xbe9a00a1	-0.30078605
50	0xbf14304a	-0.57886183
51	0xbb1eea6b	-0.002424861
52	0x3e82753b	0.25480065
53	0xbe8b1f93	-0.27172527
54	0x3e3a2056	0.18176398
55	0x3e32df21	0.1746793
56	0x3eb05317	0.34438393
57	0xbe2b1831	-0.16708447
58	0xbf0cba46	-0.5497173
59	0xbe944901	-0.28961948
60	0xbde1e579	-0.110300966
61	0x3e171cbc	0.14757055
62	0x3ed49a2e	0.4152388
63	0xbc8c1485	-0.017099628
64	0xbeb860ea	-0.3601144
65	0x3ebeb7f0	0.37249708
66	0xbedba9ef	-0.42903087
67	0x3f09d62c	0.53842425
68	0x3d068ea3	0.032850873
69	0xbed1685b	-0.4089993
70	0x3e0b589b	0.13608019
71	0xbe46d556	-0.19417319
72	0xbe0238d4	-0.1271699
73	0xbea86033	-0.32885894
74	0xbbc4af32	-0.00600233
75	0x3dc3e0d1	0.09564365
76	0xbe0232f8	-0.12714756
77	0xbeeef960	-0.46674633
78	0x3f04a44a	0.51813185
79	0x3f03035f	0.5117702
80	0xbd25ed4c	-0.040509507
81	0xbebac52b	-0.36478552
82	0xbd9b3ed6	-0.075803444
83	0xbeab52a7	-0.33461496
84	0xbd7e91a0	-0.062150598
85	0x3f05b1e9	0.52224594
86	0x3e38356c	0.17989129
87	0xbf14dc52	-0.5814868
88	0x3dffd6bc	0.12492129
89	0x3ed3c708	0.41362786
90	0xbe8d5d9b	-0.27610478
91	0x3e86a295	0.26295915
92	0x3f3bfa87	0.7342915
93	0xbca6b668	-0.02035065
94	0xbe062119	-0.13098563
95	0xbe5067d8	-0.20352113
96	0xbecdc367	-0.40188143
97	0x3e30b3dd	0.17256112
98	0x3eb34736	0.35015267
99	0xbe06ec74	-0.13176137
100	0xbd39730e	-0.04527574
101	0x3d9824e0	0.07428908
102	0xbe77f707	-0.24215327
103	0x3dea3c41	0.11437274
104	0xbab7dd50	-0.0014027748
105	0xbe6ba24b	-0.23011129
106	0x3e9d434f	0.30715415
107	0x3ec88cee	0.3917002
108	0xbe537952	-0.20651749
109	0x3d908c94	0.07058063
110	0x3f14b04e	0.5808152
111	0x3df6e367	0.12055092
112	0xbf06d0ab	-0.5266215
113	0x3d18ee1f	0.037336465
114	0x3e67e909	0.2264749
115	0xbed9e101	-0.42554477
116	0xbe64bd39	-0.22337808
117	0x3e0f9c59	0.14024486
118	0xbe49784a	-0.19674793
119	0x3ef2874c	0.47368848
120	0x3e9af8a5	0.30267826
121	0xbcb2f1fc	-0.021843903
122	0xbd263df3	-0.040586423
123	0xbd2ba4df	-0.04190528
124	0xbe19508b	-0.14972131
125	0x3ef997bb	0.48748574
126	0xbe40fa5b	-0.18845503
127	0xbee34b3a	-0.4439333
128	0x3ebb5223	0.36586103
129	0xbf122fe2	-0.57104313
130	0xbe970676	-0.29497117
131	0xbef0deb9	-0.47044924
132	0xbf01ac27	-0.5065331
133	0x3da8af2a	0.08236535
134	0xbde53622	-0.11191966
135	0x3f0696b7	0.5257372
136	0xbde1e7f6	-0.11030571
137	0xbf02c7e5	-0.51086265
138	0x3f0c8120	0.5488453
139	0xbe137368	-0.14399493
140	0x3de580f1	0.11206234
141	0xbf00492c	-0.5011165
142	0x3f078042	0.5293008
143	0x3ebce719	0.36895064
144	0xbeddad3d	-0.43296233
145	0x3e4ede59	0.20202006
146	0xbf130314	-0.5742657
147	0xbd844f8f	-0.06460487
148	0xbe49a960	-0.19693518
149	0xbe0d4d2c	-0.1379897
150	0x3e58dfef	0.21179174
151	0xbe5a6424	-0.21327263
152	0xbea64e13	-0.3248144
153	0xbeab0388	-0.33401132
154	0x3e1bd8a4	0.1521936
155	0xbe80e9d5	-0.251784
156	0xbef83891	-0.48480657
157	0xbdb1f441	-0.08689166
158	0x3df3cf90	0.11904824
159	0xbe4dc7b4	-0.20095712
160	0xbeb1ac34	-0.34701693
161	0xbeb38754	-0.35064185
162	0x3daf1fd3	0.08550992
163	0x3f10cacd	0.5655945
164	0xbd32dce4	-0.04366769
165	0x3d527d8c	0.051389262
166	0x3f0b2e71	0.5436774
167	0xbe11df0b	-0.1424524
168	0xbe11edd1	-0.14250876
169	0x3eeb1fa4	0.45922577
170	0xbecfa3e7	-0.40554735
171	0xbe8eae7b	-0.27867493
172	0xbe370ee5	-0.17876776
173	0xbf0b6e23	-0.5446493
174	0xbed04cfe	-0.4068374
175	0xbed79a74	-0.42110026
176	0xbe61bf1d	-0.2204556
177	0xbe660f24	-0.22466713
178	0xbdf59dda	-0.119929984
179	0xbf0696f2	-0.52574074
180	0x3e32e4db	0.17470114
181	0xbda04e25	-0.07827405
182	0x3ea90b0b	0.33016238
183	0xbede4188	-0.4340937
184	0xbdf5255a	-0.11970015
185	0xbe6d653d	-0.2318315
186	0xbd94386c	-0.07237324
187	0x3e18ce24	0.14922386
188	0xbcd21898	-0.025646493
189	0x3dc0291e	0.093828425
190	0xbeae399f	-0.34028336
191	0x3ead66f4	0.3386761

bias f4 [64]
0	0x3dceff48	0.10107285
1	0xbea67b6d	-0.3251604
2	0x3ebff04e	0.37488025
3	0xbd66c776	-0.056342565
4	0x3ec00c0e	0.37509197
5	0xbedaaab5	-0.42708364
6	0xbec01698	-0.37517238
7	0x3ef6a9e5	0.48176494
8	0xbea42488	-0.3205912
9	0xbe14ee00	-0.14543915
10	0xbe13c181	-0.14429285
11	0xbe23973f	-0.15975665
12	0xbe4185bd	-0.18898673
13	0xbe9ab9c1	-0.30219844
14	0x3ec9f96a	0.394481
15	0xbebb0435	-0.36526647
16	0x3e658de6	0.22417411
17	0xbeb03688	-0.34416604
18	0xbe75ad58	-0.23991907
19	0xbd63df5b	-0.05563293
20	0xbf03a58d	-0.51424485
21	0x3ee64785	0.4497644
22	0x3e9dcabe	0.30818743
23	0x3cf14c50	0.029455334
24	0x3e99db97	0.30050346
25	0xbe4039ea	-0.18772092
26	0x3be520d3	0.0069924383
27	0x3ecfa99f	0.40559098
28	0xbef4ce5f	-0.478137
29	0xbd126513	-0.035740923
30	0x3ed0dfa5	0.40795627
31	0xbe9ea257	-0.3098323
32	0xbdd2e699	-0.10297889
33	0x3e381300	0.17975998
34	0xbe2b83ed	-0.16749544
35	0xbd9c9dc3	-0.07647278
36	0x3e677177	0.22601877
37	0xbea8894d	-0.32917252
38	0xbefab987	-0.4896967
39	0xbcedf0da	-0.029045511
40	0x3daea331	0.0852722
41	0xbe551218	-0.20807683
42	0xbe0110ae	-0.12604019
43	0xbf180890	-0.59388065
44	0xbd38becb	-0.04510383
45	0x3e93a760	0.28838634
46	0x3ed4ac8f	0.41537902
47	0x3e01090f	0.12601112
48	0xbee845e8	-0.45365834
49	0xbcc41f50	-0.023940712
50	0xbe8ba286	-0.27272433
51	0x3e596cc2	0.21232894
52	0xbd3cbc44	-0.04607798
53	0xbe97bbed	-0.29635563
54	0xbea6bd73	-0.32566413
55	0x3f042ba1	0.5162907
56	0xbee6dc09	-0.45089749
57	0xbdb6304b	-0.0889593
58	0x3ea2520a	0.31703216
59	0x3f0633ea	0.52422965
60	0x3e4621a2	0.19348767
61	0x3db4bc92	0.088250294
62	0xbe430976	-0.19046578
63	0x3dee4e10	0.11635983

weight f4 [64, 64]
0	0x3d66a998	0.05631408
1	0xbd9c81d4	-0.0764195
2	0xbd424157	-0.047425594
3	0x3dd57c02	0.10424043
4	0xbdc9eb65	-0.09859351
5	0x3d88e867	0.06684952
6	0x3dbeef78	0.09323019
7	0xbbd93fc2	-0.006629915
8	0x3db2d93e	0.08732842
9	0x3df8bac1	0.121449955
10	0xbde8de94	-0.113705784
11	0xbba10d59	-0.0049149212
12	0x3d81e8b9	0.063432164
13	0xbd8d3dfc	-0.06896588
14	0xbbbc0803	-0.0057382598
15	0x3ddcd000	0.1078186
16	0xbd584f6e	-0.052810125
17	0x3b721e65	0.0036944386
18	0xbdb710a9	-0.089387245
19	0xbd6e10ef	-0.058121618
20	0xbd493358	-0.04912123
21	0xbda711a1	-0.08157659
22	0x3db6eeb4	0.08932248
23	0x3d11ef0d	0.035628367
24	0xbd8da619	-0.06916446
25	0x3dc0deba	0.09417482
26	0xbe0d5c3a	-0.13804713
27	0xbdbc3dc5	-0.09191469
28	0x3de4ffca	0.111816004
29	0xbde909aa	-0.113787964
30	0x3db3ab28	0.0877288
31	0xbc2f3930	-0.010694787
32	0x3dada43c	0.08478591
33	0xbccce748	-0.025012627
34	0x3bf9da7d	0.007624923
35	0xbdcd0fe0	-0.100127935
36	0xbcb387ff	-0.021915434
37	0xbdae10f3	-0.084993266
38	0xbc734a31	-0.014849232
39	0xbddb3783	-0.107039474
40	0x3dab3f39	0.08361668
41	0xbddf86d8	-0.10914391
42	0x3d7de284	0.0619836
43	0x3c67756a	0.014127115
44	0x3cf3b971	0.029751511
45	0x372b86c0	1.0223768e-05
46	0x3d06e048	0.032928735
47	0x3ca65324	0.020303316
48	0x3ddd2852	0.10798706
49	0x3dd40fe2	0.10354592
50	0xbd4af669	-0.0495514
51	0x3ca80007	0.020507826
52	0x3d3a55bb	0.045491915
53	0xbc98ad84	-0.018637426
54	0xbc632620	-0.01386407
55	0xbd92d11b	-0.0716879
56	0xbd137470	-0.035999715
57	0xbddd083f	-0.107925884
58	0x3da5ab5f	0.08089327
59	0xbcfeabe3	-0.031087821
60	0x3d914e8e	0.07095061
61	0xbdd36567	-0.10322075
62	0xbdd6454d	-0.10462437
63	0xbdb392c5	-0.087682284
64	0x3d48dece	0.049040608
65	0xbd8884ee	-0.06665979
66	0x3da9f0b6	0.08297865
67	0x3dbefeec	0.09325966
68	0x3db182fc	0.086675614
69	0xbdc9fd51	-0.098627694
70	0xbd1815ca	-0.037130155
71	0xbdd74501	-0.10511208
72	0x3d4a7758	0.04943022
73	0xbca81c6f	-0.02052137
74	0xbd52802d	-0.05139177
75	0xbdafe44e	-0.085884675
76	0xbd3f486c	-0.046699926
77	0x3cf25bb7	0.029584749
78	0x3c793939	0.015211397
79	0x3b1ade9a	0.0023631216
80	0x3e188ed4	0.14898235
81	0x3d272e22	0.04081548
82	0xbc679045	-0.014133518
83	0xbdb179ab	-0.086657844
84	0xbc8680d3	-0.01641885
85	0xbcf2959d	-0.029612357
86	0xbc2fa413	-0.010720271
87	0x3cc38e29	0.023871498
88	0x3cf62a83	0.030049568
89	0xbdaaf362	-0.08347203
90	0x3d50722e	0.05089014
91	0x3d620d79	0.05518863
92	0xbd698509	-0.057011638
93	0x3c899118	0.016792819
94	0x3c248add	0.010042873
95	0x3dd0e62f	0.10200154
96	0xbd25ab9b	-0.04044686
97	0xbe10a10d	-0.14123936
98	0xbb87300b	-0.0041256
99	0xbdcea31b	-0.10089704
100	0xbca65cc4	-0.020307906
101	0xbd3b006b	-0.045654695
102	0x3db0a857	0.08625858
103	0x3df5a6ea	0.11994727
104	0x3dc0fcdf	0.09423231
105	0x3d11f33a	0.03563235
106	0xbdddc32f	-0.10828244
107	0xbcf3defb	-0.029769411
108	0x3de79586	0.11307816
109	0x3d225bc6	0.039638303
110	0xbd8fc591	-0.07020105
111	0x3e02a67e	0.12758824
112	0x3c4b3b94	0.012404341
113	0xbd09a1b1	-0.033601467
114	0x3d80ff8b	0.06298741
115	0xbd9767d5	-0.07392851
116	0xbdaa7c9a	-0.08324547
117	0x3d911b12	0.070852414
118	0x3c470c6b	0.012148957
119	0xbd28325e	-0.04106366
120	0x3dc31156	0.09524791
121	0xbd65913f	-0.05604672
122	0x3dc5aa65	0.09651641
123	0xbdb40e54	-0.087917954
124	0x3d4fd5cb	0.050741
125	0x3c93eaae	0.01805624
126	0x3d64a906	0.055825256
127	0x3d879fd5	0.066222824
128	0x3daf6c4f	0.0856558
129	0xbda9a0d4	-0.08282629
130	0x3d2b0edc	0.041762218
131	0xbd820bf6	-0.063499376
132	0xbda494cf	-0.080361955
133	0x3dcbb31f	0.09946274
134	0x3d9dd7a9	0.077071495
135	0x3d22e950	0.039773285
136	0x3d8eb798	0.069686115
137	0xbc3068b5	-0.010767152
138	0x3d88433d	0.0665345
139	0xbd87f8d3	-0.06639256
140	0xbdabcd83	-0.083888076
141	0xbd84a641	-0.06477023
142	0x3d833f8d	0.06408606
143	0xbb0d8e77	-0.0021599808
144	0x3e12d9bb	0.1434087
145	0x3d7784c9	0.06042937
146	0xbde65718	-0.112470806
147	0xbc8934f3	-0.016748881
148	0xbd99bd78	-0.075068414
149	0x3db6126c	0.088902324
150	0x3d2ba1d5	0.041902382
151	0xbcec8954	-0.028874077
152	0x3ce06b47	0.027394904
153	0x3d88f44e	0.066872224
154	0xbd1b16f9	-0.037863705
155	0xbd59e1f0	-0.053193986
156	0x3ce08dca	0.02741136
157	0x3d86f818	0.06590289
158	0xbd453f7b	-0.048156243
159	0xbc9d93f4	-0.019235589
160	0xbdad4229	-0.08459885
161	0xbd68547d	-0.0567212
162	0x3da067f3	0.07832327
163	0xbdd433a8	-0.10361415
164	0xbcaf3149	-0.021385806
165	0xbe274d54	-0.16338092
166	0x3d5af573	0.053456735
167	0xbd39f2e2	-0.045397647
168	0xbd8b4748	-0.06800705
169	0x3cfb8f4a	0.030707974
170	0xbccc76e2	-0.024959031
171	0xbdc6468d	-0.09681425
172	0xbdc43d0a	-0.09581955
173	0x3dd34572	0.1031598
174	0x3dde10b1	0.108430274
175	0xb98b911f	-0.0002662027
176	0x3d49fe1b	0.0493146
177	0x3da474f7	0.08030122
178	0xbcb236ee	-0.021754708
179	0xbd3456ef	-0.04402822
180	0xbe1f1e2f	-0.15538858
181	0x3d82c018	0.06384295
182	0x3de1c916	0.11024682
183	0x3ca5667b	0.020190468
184	0xbd836070	-0.06414878
185	0x3dbea2b3	0.09308376
186	0x3d623c84	0.055233493
187	0x3c802999	0.015644835
188	0x3e017462	0.12642053
189	0x3d5eab1a	0.054362394
190	0x3d2b667c	0.041845784
191	0x3db4ac0b	0.08821877
192	0xbd508dec	-0.050916597
193	0x3d62f384	0.055408016
194	0x3d8cc014	0.068725735
195	0x3dba83e5	0.09107188
196	0xbda50daf	-0.080592506
197	0xbdbfbe27	-0.093624406
198	0xbd902589	-0.07038409
199	0x3d38af7d	0.045089234
200	0x3da8eb30	0.082479835
201	0xbd02661f	-0.03183567
202	0x3de172fd	0.110082604
203	0x3d8b170a	0.06791504
204	0xbde65e91	-0.11248506
205	0xbbc554dc	-0.006022079
206	0x3d5e5fe3	0.054290663
207	0xbd9d0d6b	-0.07668575
208	0xbd385396	-0.04500159
209	0x3e048741	0.1294222
210	0xbd3b9478	-0.045795888
211	0xbe0749d1	-0.13211752
212	0xbd8add83	-0.06780531
213	0xbdc01dd7	-0.093806915
214	0xbc43c3d7	-0.011948547
215	0xbd82cf70	-0.06387222
216	0xbd83c252	-0.06433548
217	0x3d8a9469	0.06766588
218	0xbd314a0b	-0.043283504
219	0x3d93c549	0.072153635
220	0xbb9c9c78	-0.0047793947
221	0x3ce2e3bd	0.027696485
222	0xbb730f29	-0.0037087894
223	0xbc4715ff	-0.01215124
224	0xbdfb6a6c	-0.12276158
225	0xbdb1f6b6	-0.086896345
226	0xbcf73b30	-0.03017959
227	0x3d81bc8e	0.06334792
228	0x3d8bf3fd	0.068336464
229	0x3dfdd0fc	0.12393376
230	0xbc1dde09	-0.009635457
231	0xbd8dbba2	-0.06920554
232	0x3dadd5db	0.08488055
233	0x3dd889d3	0.10573163
234	0x3ce47408	0.02788736
235	0x3dbd4a3b	0.09242674
236	0x3da5d76a	0.080977276
237	0x3dd9b7aa	0.10630734
238	0x3c04ddfe	0.008109568
239	0x3d71ef97	0.05906638
240	0x3daa7403	0.08322909
241	0x3dfa7fec	0.122314304
242	0x3d7bc182	0.06146384
243	0x3d7249d0	0.059152424
244	0xbc764ef7	-0.015033475
245	0x3cae55e8	0.021281198
246	0xbd26f70b	-0.040762942
247	0xbd06a528	-0.03287235
248	0xbded9410	-0.11600506
249	0xbd471961	-0.048608188
250	0x3dd2e2a9	0.10297138
251	0xbb8eeda8	-0.004361827
252	0xbcacb94f	-0.021084456
253	0xbd893fd5	-0.06701628
254	0x3a803bb8	0.0009783423
255	0x3d9254cc	0.0714508

weight f4 [64, 64]
0	0xbba45de6	-0.0050160764
1	0x3d5a04b0	0.053227127
2	0x3dcac072	0.09899987
3	0x3dbbd8d0	0.09172213
4	0xbdd71294	-0.1050159
5	0x3da8f903	0.0825062
6	0xbd1e5094	-0.038651064
7	0xbdd1ba12	-0.10240568
8	0x3df6c95d	0.12050126
9	0x3de25f6a	0.11053355
10	0x3c250039	0.010070854
11	0xbde4e5b0	-0.11176622
12	0xbd0f9783	-0.035056602
13	0x3db65f75	0.08904926
14	0x3e098705	0.13430412
15	0xbdfb4883	-0.1226969
16	0x3d7a2512	0.06107051
17	0x3ddd0bc0	0.10793257
18	0xbdf0bdce	-0.11754952
19	0x3dcc9fa1	0.09991384
20	0x3d277268	0.04088059
21	0xbbdcf038	-0.0067425035
22	0x3d7d00cf	0.06176835
23	0x3caced57	0.021109266
24	0x3d96a78a	0.07356174
25	0xbcfc8a35	-0.030827621
26	0xbd6e624a	-0.058199205
27	0x3e035d82	0.12828639
28	0x3b12f619	0.0022424518
29	0xbcb0a5d3	-0.021563446
30	0xbd63bfa4	-0.055602685
31	0x3d0af517	0.033925142
32	0xbdadb9d8	-0.084827125
33	0xbde0711e	-0.109590754
34	0x3ceed8d3	0.029156124
35	0x3db8994b	0.09013613
36	0x3daf3723	0.08555438
37	0x3d32ffbc	0.04370092
38	0xbd216882	-0.039406307
39	0xbd3efc2f	-0.04662722
40	0x3d9bc5a5	0.07606057
41	0xbdf2467c	-0.1182985
42	0xbdf36955	-0.11885325
43	0x3db14138	0.086550176
44	0xbd9d2844	-0.07673696
45	0x3d8742a8	0.066045105
46	0x3d000137	0.03125116
47	0x3ddb570a	0.10709961
48	0x3ce37e8f	0.027770309
49	0xbd62cacb	-0.05536918
50	0xbdb17308	-0.086645186
51	0xbd4f207a	-0.05056808
52	0xbcf399d2	-0.029736433
53	0xbbe5d4cc	-0.0070138928
54	0x3d49917b	0.049211007
55	0x3cfd0b61	0.030889215
56	0xbd75e666	-0.06003418
57	0x3c57dc00	0.013175011
58	0xbd84dbaf	-0.06487214
59	0x3be6beb5	0.007041777
60	0x3d414759	0.047187183
61	0x3db4e387	0.0883246
62	0xbdd627ad	-0.10456786
63	0xbdd2151f	-0.10257935
64	0xbc100253	-0.008789617
65	0xbca09725	-0.019603321
66	0xbe0b3517	-0.13594471
67	0x3bdb3ef7	0.0066908556
68	0xbca2e66b	-0.019885262
69	0xbcd43bf8	-0.025907502
70	0x3d55349e	0.052052133
71	0xbe09ba4b	-0.13449971
72	0x3d201b69	0.03908864
73	0xbdbf1acf	-0.09331285
74	0xbc925450	-0.017862469
75	0x3d720a83	0.059092056
76	0x3cc37a25	0.023861954
77	0xbd9f4254	-0.07776323
78	0x3c529666	0.012853241
79	0x3cc7945e	0.02436274
80	0xbda82811	-0.08210767
81	0xbce9df90	-0.028548986
82	0x3c1eb7b8	0.009687357
83	0xbdfd96a5	-0.12382249
84	0xbd3a35c0	-0.045461416
85	0x3dacced1	0.084378846
86	0xbdf34a5b	-0.118794166
87	0xbd76466d	-0.060125757
88	0x3d8586c8	0.06519848
89	0x3d4bf28d	0.04979186
90	0x3d6e3965	0.058160204
91	0xbda29f2f	-0.07940518
92	0x3de8b629	0.11362869
93	0xbdbc0b1b	-0.09181806
94	0xbd300eb7	-0.042982783
95	0xbe058481	-0.13038827
96	0x3d26d50b	0.040730517
97	0xbc1cd60a	-0.009572515
98	0x3ca37aef	0.01995608
99	0x3cabe155	0.02098147
100	0xbd6c2ec8	-0.0576618
101	0x3d710b8f	0.058848914
102	0x3cec85d0	0.0288724
103	0x3d8e629e	0.069524035
104	0x3d002417	0.031284418
105	0x3da5d267	0.08096772
106	0xbdb07334	-0.08615723
107	0xbd8fcce0	-0.07021499
108	0xbd73a748	-0.059485704
109	0x3cb0d13e	0.02158415
110	0xbd4fea47	-0.050760534
111	0xbd8a0594	-0.06739345
112	0x3bd169c9	0.0063907844
113	0x3dc18d8c	0.09450826
114	0xbcd9b86d	-0.026577199
115	0xbda0e5ee	-0.078563556
116	0xbdecbc2f	-0.11559331
117	0x3dfe6323	0.124212526
118	0xbc4a15c0	-0.012334287
119	0x3dae9f29	0.08526451
120	0xbd3ab291	-0.04558045
121	0x3cbd4522	0.023104254
122	0xbdd7b18e	-0.10531913
123	0xbe011572	-0.12605837
124	0xbd91d380	-0.071204185
125	0xbd4d4818	-0.050117582
126	0x3d0b4295	0.033999044
127	0x3cfc58d4	0.030804075
128	0xb99522e2	-0.00028445484
129	0xbbecb690	-0.0072239116
130	0x3d528f66	0.051406287
131	0xba6da4d4	-0.0009065394
132	0xbcc9de78	-0.024642214
133	0xbda833e6	-0.08213024
134	0xbdb9d40f	-0.0907365
135	0x3c870d34	0.016485788
136	0xbdb2103d	-0.086945035
137	0xbdd5a228	-0.104313195
138	0x3d6dc0f1	0.05804533
139	0x3d6bad13	0.057538103
140	0xbd92082c	-0.07130465
141	0xbdecf86d	-0.11570821
142	0x3d5dc003	0.054138195
143	0x3bedbeff	0.0072554345
144	0x3d28697d	0.041116226
145	0xbe0dd41a	-0.13850442
146	0x3deeed74	0.11666384
147	0xbd71a2fe	-0.058993332
148	0xbdb087d6	-0.08619659
149	0xbc947db2	-0.018126342
150	0xbd9816fe	-0.074262604
151	0xbdbd80ed	-0.09253106
152	0x3d9e105e	0.077179655
153	0xbe026e96	-0.12737498
154	0x3df296d5	0.11845175
155	0xbdb41447	-0.0879293
156	0xbd299384	-0.041400447
157	0xbca1d818	-0.019756362
158	0xbceedd8b	-0.029158374
159	0xbe120946	-0.1426135
160	0xbde9b72d	-0.11411891
161	0xbc8aa4b4	-0.01692424
162	0x3b9edc55	0.004848043
163	0x3bf24cbc	0.0073944014
164	0xbcbf03bc	-0.02331721
165	0x3dc0ebdb	0.09419986
166	0x3c35fec0	0.0111081
167	0xbe118bc3	-0.14213471
168	0xbd049d8d	-0.032376815
169	0x3d26da3d	0.040735472
170	0xbd94660b	-0.07246026
171	0x3d272e60	0.04081571
172	0x3bf855ea	0.007578601
173	0xbde9faad	-0.11424766
174	0x3cc39d41	0.023878695
175	0xbc474037	-0.012161306
176	0x3bc64ccc	0.0060516354
177	0xbc867c47	-0.016416682
178	0x3d56ccae	0.05244129
179	0x3d0f4c45	0.034984846
180	0xbd5b1e04	-0.053495422
181	0x3dc028f6	0.09382813
182	0xbdb55a4c	-0.088551134
183	0xbd0cc32b	-0.034365814
184	0xbb096f3b	-0.002097084
185	0x3cfa7037	0.030571086
186	0xbd346e31	-0.0440504
187	0x3cc98dae	0.024603691
188	0xbdf8847a	-0.12134643
189	0xbdef61b1	-0.11688555
190	0xbd938706	-0.07203488
191	0xbe09552c	-0.13411397
192	0x3d2bd1cf	0.041948136
193	0x3cdaa57e	0.026690241
194	0x3cdef031	0.027214142
195	0xbc610cd7	-0.013735971
196	0xbda8a8a6	-0.08235292
197	0x3c3c3244	0.011486594
198	0xbdd60926	-0.10450964
199	0x3b5b0775	0.0033421193
200	0x3bf2f200	0.0074141026
201	0x3ce79a75	0.028271893
202	0xbd8c3efd	-0.068479516
203	0x3d3a795c	0.045525894
204	0x3d3e8a40	0.046518564
205	0xbcd99bb1	-0.026563497
206	0x3daa2a4c	0.08308849
207	0x3de416d6	0.11137168
208	0x3e1195b5	0.14217265
209	0xbc6011e8	-0.013676144
210	0xbdb28047	-0.08715873
211	0xbd995fdd	-0.074889876
212	0xbd72df45	-0.059294958
213	0xbd9aa628	-0.07551223
214	0x3d51cc33	0.05122013
215	0xbcfea9ee	-0.031086888
216	0x3c92738b	0.01787736
217	0xbc50e972	-0.01275097
218	0xbd517924	-0.05114092
219	0xbd753d73	-0.059873056
220	0xbdf8fb7b	-0.12157341
221	0xbb214d22	-0.0024612625
222	0x3d6a0a2d	0.05713861
223	0xbc6f5512	-0.014607685
224	0x3dd82bfd	0.10555265
225	0x3dc2dce8	0.09514791
226	0x3cd22bfe	0.025655743
227	0x3dcf8fad	0.10134826
228	0xbe06132a	-0.13093248
229	0x3d45cc98	0.04829082
230	0xbdbf15da	-0.0933034
231	0x3c0b0aed	0.008486492
232	0x3c984204	0.018586166
233	0xbe1ae56b	-0.15126579
234	0xbdf3b5d3	-0.118999146
235	0x3d8f5eab	0.07000478
236	0x3dbcfce8	0.092279255
237	0xbdc3fead	-0.0957006
238	0xbdc52321	-0.09625841
239	0xbdd7930c	-0.10526094
240	0xbdfc0334	-0.123052984
241	0xbdd728ee	-0.105058536
242	0x3be87fa6	0.007095295
243	0x3bada029	0.0052986336
244	0x3d797f90	0.06091267
245	0xbd22859e	-0.03967821
246	0x3d1490b8	0.036270827
247	0x3d5ca686	0.053869747
248	0xbdb69f5a	-0.08917113
249	0xbd506b51	-0.050883595
250	0xbdd8f98f	-0.105944745
251	0xbc992d57	-0.018698378
252	0x3d483c6b	0.048885744
253	0x3b8d66b8	0.0043152235
254	0x3d025bc4	0.031825796
255	0x3d3ac852	0.045601197
